…
clothing
The number of users: 39387
Average actions of users: 1.0457511361616778
The number of items: 16803
Average actions of items: 2.451288460393977
The number of inters: 41189
The sparsity of the dataset: 99.99377640221293%
Thu 09 Jan 2025 19:15:14 INFO 

=================================


Thu 09 Jan 2025 19:15:14 INFO =========1/324: Parameters:['mm_image_weight', 'k', 'u_layers', 'n_mm_layers', 'knn_k', 'aggr_mode', 'reg_weight', 'learning_rate', 'seed']=(0.1, 30, 1, 1, 5, 'add', 0.01, 0.001, 999)=======
Thu 09 Jan 2025 19:15:41 INFO Cleaner(
  (dropout): Dropout(p=0.3, inplace=False)
  (MLP_t): Linear(in_features=384, out_features=384, bias=True)
  (MLP_v): Linear(in_features=384, out_features=384, bias=True)
  (MLP_t_1): Linear(in_features=384, out_features=384, bias=True)
  (MLP_v_1): Linear(in_features=384, out_features=384, bias=True)
  (text_decompose): ModalDecompose(
    (decompose_layer): Sequential(
      (0): Linear(in_features=384, out_features=384, bias=True)
      (1): LayerNorm((384,), eps=1e-05, elementwise_affine=True)
      (2): Linear(in_features=384, out_features=384, bias=True)
    )
    (decouple_com): Linear(in_features=384, out_features=384, bias=True)
    (decouple_spe): Linear(in_features=384, out_features=384, bias=True)
    (decouple_com_2): Linear(in_features=384, out_features=384, bias=True)
    (decouple_spe_2): Linear(in_features=384, out_features=384, bias=True)
    (decouple_com_3): Linear(in_features=384, out_features=384, bias=True)
    (decouple_spe_3): Linear(in_features=384, out_features=384, bias=True)
    (ln): LayerNorm((384,), eps=1e-05, elementwise_affine=True)
  )
  (text_club): CLUB(
    (mu_layer): Sequential(
      (0): Linear(in_features=384, out_features=384, bias=True)
      (1): ReLU()
    )
    (logvar_layer): Sequential(
      (0): Linear(in_features=384, out_features=384, bias=True)
      (1): ReLU()
    )
  )
  (image_decompose): ModalDecompose(
    (decompose_layer): Sequential(
      (0): Linear(in_features=384, out_features=384, bias=True)
      (1): LayerNorm((384,), eps=1e-05, elementwise_affine=True)
      (2): Linear(in_features=384, out_features=384, bias=True)
    )
    (decouple_com): Linear(in_features=384, out_features=384, bias=True)
    (decouple_spe): Linear(in_features=384, out_features=384, bias=True)
    (decouple_com_2): Linear(in_features=384, out_features=384, bias=True)
    (decouple_spe_2): Linear(in_features=384, out_features=384, bias=True)
    (decouple_com_3): Linear(in_features=384, out_features=384, bias=True)
    (decouple_spe_3): Linear(in_features=384, out_features=384, bias=True)
    (ln): LayerNorm((384,), eps=1e-05, elementwise_affine=True)
  )
  (image_club): CLUB(
    (mu_layer): Sequential(
      (0): Linear(in_features=384, out_features=384, bias=True)
      (1): ReLU()
    )
    (logvar_layer): Sequential(
      (0): Linear(in_features=384, out_features=384, bias=True)
      (1): ReLU()
    )
  )
  (cross_rec): Corss_Rec(
    (text_linear): Linear(in_features=384, out_features=384, bias=True)
    (image_linear): Linear(in_features=384, out_features=384, bias=True)
    (ln): LayerNorm((384,), eps=1e-05, elementwise_affine=True)
    (text_rec): Sequential(
      (0): Linear(in_features=384, out_features=384, bias=True)
      (1): Tanh()
      (2): Linear(in_features=384, out_features=384, bias=True)
    )
    (image_rec): Sequential(
      (0): Linear(in_features=384, out_features=384, bias=True)
      (1): Tanh()
      (2): Linear(in_features=384, out_features=384, bias=True)
    )
    (rec_loss_func): MSELoss()
  )
  (user_linear): Linear(in_features=384, out_features=384, bias=True)
  (IB_model): IBModel(
    (mu_layer): Linear(in_features=384, out_features=384, bias=True)
    (logvar_layer): Linear(in_features=384, out_features=384, bias=True)
    (ln): LayerNorm((384,), eps=1e-05, elementwise_affine=True)
    (c_layer): Linear(in_features=384, out_features=384, bias=True)
  )
  (FreeIB_model): FreeIBModel(
    (linear): Linear(in_features=384, out_features=384, bias=True)
    (ln): LayerNorm((384,), eps=1e-05, elementwise_affine=True)
    (c_layer): Sequential(
      (0): Linear(in_features=384, out_features=384, bias=True)
      (1): Tanh()
      (2): Linear(in_features=384, out_features=384, bias=True)
      (3): Sigmoid()
    )
  )
)
Trainable parameters: 62848512
Thu 09 Jan 2025 19:15:55 INFO epoch 0 training [time: 13.95s, train loss: 255.1514]
Thu 09 Jan 2025 19:16:02 INFO epoch 0 test result: 
	recall@10: 0.0604    recall@20: 0.0887    ndcg@10: 0.0331    ndcg@20: 0.0402    
Thu 09 Jan 2025 19:16:02 INFO best result: 
	recall@10: 0.0604    recall@20: 0.0887    ndcg@10: 0.0331    ndcg@20: 0.0402    
…
